…
es': [0, 1, 2, 3, 4, 5], 'out_channels': 4}}, transport=True, weight_decay=0, world_size=1)
MSCMR(
  (UNet): Unet(
    (Pad): ConstantPad2d(padding=(92, 92, 92, 92), value=0)
    (Maxpool1): MaxPool2d(kernel_size=2, stride=2, padding=0, dilation=1, ceil_mode=False)
    (Maxpool2): MaxPool2d(kernel_size=2, stride=2, padding=0, dilation=1, ceil_mode=False)
    (Maxpool3): MaxPool2d(kernel_size=2, stride=2, padding=0, dilation=1, ceil_mode=False)
    (Maxpool4): MaxPool2d(kernel_size=2, stride=2, padding=0, dilation=1, ceil_mode=False)
    (Conv1): conv_block(
      (conv): Sequential(
        (0): Conv2d(1, 64, kernel_size=(3, 3), stride=(1, 1))
        (1): ReLU(inplace=True)
        (2): BatchNorm2d(64, eps=1e-05, momentum=0.1, affine=True, track_running_stats=True)
        (3): Conv2d(64, 64, kernel_size=(3, 3), stride=(1, 1))
        (4): ReLU(inplace=True)
        (5): BatchNorm2d(64, eps=0.001, momentum=0.01, affine=True, track_running_stats=True)
      )
    )
    (Conv2): conv_block(
      (conv): Sequential(
        (0): Conv2d(64, 128, kernel_size=(3, 3), stride=(1, 1))
        (1): ReLU(inplace=True)
        (2): BatchNorm2d(128, eps=1e-05, momentum=0.1, affine=True, track_running_stats=True)
        (3): Conv2d(128, 128, kernel_size=(3, 3), stride=(1, 1))
        (4): ReLU(inplace=True)
        (5): BatchNorm2d(128, eps=0.001, momentum=0.01, affine=True, track_running_stats=True)
      )
    )
    (Conv3): conv_block(
      (conv): Sequential(
        (0): Conv2d(128, 256, kernel_size=(3, 3), stride=(1, 1))
        (1): ReLU(inplace=True)
        (2): BatchNorm2d(256, eps=1e-05, momentum=0.1, affine=True, track_running_stats=True)
        (3): Conv2d(256, 256, kernel_size=(3, 3), stride=(1, 1))
        (4): ReLU(inplace=True)
        (5): BatchNorm2d(256, eps=0.001, momentum=0.01, affine=True, track_running_stats=True)
      )
    )
    (Conv4): conv_block(
      (conv): Sequential(
        (0): Conv2d(256, 512, kernel_size=(3, 3), stride=(1, 1))
        (1): ReLU(inplace=True)
        (2): BatchNorm2d(512, eps=1e-05, momentum=0.1, affine=True, track_running_stats=True)
        (3): Conv2d(512, 512, kernel_size=(3, 3), stride=(1, 1))
        (4): ReLU(inplace=True)
        (5): BatchNorm2d(512, eps=0.001, momentum=0.01, affine=True, track_running_stats=True)
      )
    )
    (Conv5): conv_block(
      (conv): Sequential(
        (0): Conv2d(512, 1024, kernel_size=(3, 3), stride=(1, 1))
        (1): ReLU(inplace=True)
        (2): BatchNorm2d(1024, eps=1e-05, momentum=0.1, affine=True, track_running_stats=True)
        (3): Conv2d(1024, 1024, kernel_size=(3, 3), stride=(1, 1))
        (4): ReLU(inplace=True)
        (5): BatchNorm2d(1024, eps=0.001, momentum=0.01, affine=True, track_running_stats=True)
      )
    )
    (Up4): up_conv(
      (up): Sequential(
        (0): Upsample(scale_factor=2.0, mode=nearest)
        (1): Conv2d(1024, 4, kernel_size=(3, 3), stride=(1, 1), padding=(1, 1))
        (2): ReLU(inplace=True)
        (3): BatchNorm2d(4, eps=0.001, momentum=0.01, affine=True, track_running_stats=True)
      )
    )
    (Up_conv4): conv_block(
      (conv): Sequential(
        (0): Conv2d(516, 512, kernel_size=(3, 3), stride=(1, 1))
        (1): ReLU(inplace=True)
        (2): BatchNorm2d(512, eps=1e-05, momentum=0.1, affine=True, track_running_stats=True)
        (3): Conv2d(512, 512, kernel_size=(3, 3), stride=(1, 1))
        (4): ReLU(inplace=True)
        (5): BatchNorm2d(512, eps=0.001, momentum=0.01, affine=True, track_running_stats=True)
      )
    )
    (Up3): up_conv(
      (up): Sequential(
        (0): Upsample(scale_factor=2.0, mode=nearest)
        (1): Conv2d(512, 4, kernel_size=(3, 3), stride=(1, 1), padding=(1, 1))
        (2): ReLU(inplace=True)
        (3): BatchNorm2d(4, eps=0.001, momentum=0.01, affine=True, track_running_stats=True)
      )
    )
    (Up_conv3): conv_block(
      (conv): Sequential(
        (0): Conv2d(260, 256, kernel_size=(3, 3), stride=(1, 1))
        (1): ReLU(inplace=True)
        (2): BatchNorm2d(256, eps=1e-05, momentum=0.1, affine=True, track_running_stats=True)
        (3): Conv2d(256, 256, kernel_size=(3, 3), stride=(1, 1))
        (4): ReLU(inplace=True)
        (5): BatchNorm2d(256, eps=0.001, momentum=0.01, affine=True, track_running_stats=True)
      )
    )
    (Up2): up_conv(
      (up): Sequential(
        (0): Upsample(scale_factor=2.0, mode=nearest)
        (1): Conv2d(256, 128, kernel_size=(3, 3), stride=(1, 1), padding=(1, 1))
        (2): ReLU(inplace=True)
        (3): BatchNorm2d(128, eps=0.001, momentum=0.01, affine=True, track_running_stats=True)
      )
    )
    (Up_conv2): conv_block(
      (conv): Sequential(
        (0): Conv2d(256, 128, kernel_size=(3, 3), stride=(1, 1))
        (1): ReLU(inplace=True)
        (2): BatchNorm2d(128, eps=1e-05, momentum=0.1, affine=True, track_running_stats=True)
        (3): Conv2d(128, 128, kernel_size=(3, 3), stride=(1, 1))
        (4): ReLU(inplace=True)
        (5): BatchNorm2d(128, eps=0.001, momentum=0.01, affine=True, track_running_stats=True)
      )
    )
    (Up1): up_conv(
      (up): Sequential(
        (0): Upsample(scale_factor=2.0, mode=nearest)
        (1): Conv2d(128, 64, kernel_size=(3, 3), stride=(1, 1), padding=(1, 1))
        (2): ReLU(inplace=True)
        (3): BatchNorm2d(64, eps=0.001, momentum=0.01, affine=True, track_running_stats=True)
      )
    )
    (Up_conv1): conv_block(
      (conv): Sequential(
        (0): Conv2d(128, 64, kernel_size=(3, 3), stride=(1, 1))
        (1): ReLU(inplace=True)
        (2): BatchNorm2d(64, eps=1e-05, momentum=0.1, affine=True, track_running_stats=True)
        (3): Conv2d(64, 64, kernel_size=(3, 3), stride=(1, 1))
        (4): ReLU(inplace=True)
        (5): BatchNorm2d(64, eps=0.001, momentum=0.01, affine=True, track_running_stats=True)
      )
    )
    (Conv): Conv2d(64, 4, kernel_size=(1, 1), stride=(1, 1))
    (Norm): BatchNorm2d(4, eps=0.001, momentum=0.01, affine=True, track_running_stats=True)
    (active): Softmax(dim=1)
  )
)
number of params: 25759396
Building training dataset...
subject13_DE.nii subject13_DE_scribble.nii
subject14_DE.nii subject14_DE_scribble.nii
subject15_DE.nii subject15_DE_scribble.nii
subject18_DE.nii subject18_DE_scribble.nii
subject19_DE.nii subject19_DE_scribble.nii
Number of training images: 79
…
